Kinematics/IK_NN/model/custom_LeakyReLU_ann_model.pth (torch, 2472 bytes, 4 tensors)

fc1.weight f4 [5, 4]
0	0x42399dfd	46.404285
1	0xbe127eb3	-0.14306144
2	0xbdef5829	-0.11686737
3	0xbbd1cd29	-0.006402631
4	0x420f2b86	35.792503
5	0x3e78ad8d	0.24284954
6	0xbe3261b5	-0.17420085
7	0xbc290ce6	-0.010318017
8	0x42083191	34.048405
9	0x3a29539f	0.0006459299
10	0x3f74e1f8	0.956573
11	0xbde9ef87	-0.11422639
12	0x424d1d53	51.278637
13	0xbe385436	-0.18000874
14	0x3de2d282	0.110753074
15	0x3951c1f2	0.00020004043
16	0x41eaa80a	29.33205
17	0xbd0f217e	-0.03494405
18	0xbf734b19	-0.95036465
19	0xbe2f6092	-0.17126682

fc1.bias f4 [5]
0	0x42388a73	46.135204
1	0x420e002a	35.50016
2	0x4209c1cf	34.439266
3	0x424b5a13	50.837963
4	0x41ee4b71	29.786837

fc2.weight f4 [4, 5]
0	0x4036d860	2.8569565
1	0xbc6b341e	-0.014355687
2	0x3f3a158c	0.7268913
3	0xc00df7c8	-2.2182484
4	0xbf38de19	-0.72213894
5	0xbf7f3086	-0.99683416
6	0x3f1619b0	0.58632946
7	0xbc7179a1	-0.014738471
8	0xbe232357	-0.1593145
9	0xbac763a0	-0.0015212186
10	0x40ef0ca3	7.4702926
11	0xbf7ce156	-0.98781335
12	0x3fb9fe7a	1.4530785
13	0xc0debc35	-6.9604745
14	0xbfb4ca5a	-1.4124253
15	0xbef18992	-0.4717527
16	0x3f3c5d2c	0.7357967
17	0xbd3ee695	-0.04660662
18	0x3f555742	0.8333627
19	0x3c64e478	0.013970487

fc2.bias f4 [4]
0	0xc227eac9	-41.979282
1	0x42839598	65.792175
2	0x42a120bd	80.56394
3	0xc2b7c7de	-91.890366
