Kinematics/IK_NN/model/custom_ReLU_ann_model.pth (torch, 2368 bytes, 4 tensors)

fc1.weight f4 [5, 4]
00000000: 24da c241 6ae7 913b 3cc8 3d3e cdf0 673c
00000010: feac be41 2617 a73e 0f77 95bb d509 89bd
00000020: cfb9 5141 99c1 f43b f9ae 8b3e bf88 e0be
00000030: 399b cf41 8bcf b3be 14cd b13a 2e1c 9abd
00000040: 9d69 3841 3b28 2ebc 0325 8ebe 9138 d0be
24.356514 0.0044526355 0.18533415 0.0141565325 23.834469 0.32634848 -0.004561312 -0.066913284
13.107863 0.0074693677 0.2728193 -0.4385433 25.950792 -0.3511928 0.0013565146 -0.07524906
11.5257845 -0.010629709 -0.27762613 -0.40668157

fc1.bias f4 [5]
00000000: 3d2e c641 a600 c241 1775 5741 fdf3 cb41
00000010: e75e 3a41
24.772577 24.250317 13.466086 25.494135 11.6481695

fc2.weight f4 [4, 5]
00000000: 5f39 713f 11f9 683d d842 993e 0922 913d
00000010: c5bc b4be 0d63 b63c 185d 253f bbec b2ba
00000020: 0476 16bf c6da 833a 1279 cabd 6ad2 cebc
00000030: fa0b 103f 9c60 1cbc c49d 17bf 4ac2 283c
00000040: 49b8 373e 3171 00bb f121 2dbe b121 293c
0.94228166 0.056878153 0.2993381 0.0708657 -0.3530027 0.022264028 0.64595175 -0.0013650873
-0.5877383 0.0010059706 -0.098863736 -0.025246818 0.56268275 -0.009544518 -0.59225106 0.010300228
0.17941393 -0.0019598717 -0.16907479 0.010322974

fc2.bias f4 [4]
00000000: cf6f 63c2 2b8b 1cc0 dd42 ee40 7a0f 27bf
-56.859188 -2.4459941 7.445662 -0.6525799
