Kinematics/IK_NN/model/custom_test_4_ann_model.pth (torch, 4288 bytes, 8 tensors)

fc1.weight f4 [8, 4]
0	0x40b8b959	5.7726254
1	0xbd2d81ea	-0.042360224
2	0xbeb674cc	-0.35635984
3	0xbd3c0104	-0.045899406
4	0xc12fb828	-10.98246
5	0xbcf3c53c	-0.029757135
6	0x3bd5dbbc	0.0065264385
7	0x3e03d763	0.12875132
8	0x40f9a9d6	7.801982
9	0xbdc5f4a3	-0.096658014
10	0x3e8f4b4d	0.27987137
11	0xbd3120ab	-0.043244045
12	0x4112cb72	9.174669
13	0xbd52b60b	-0.05144314
14	0x3a6d11b0	0.0009043468
15	0xbd11f184	-0.035630718
16	0xc0752adf	-3.8307416
17	0xbe4d8251	-0.20069243
18	0xbe89688a	-0.2683757
19	0x3cd95a80	0.026532412
20	0x4133ca75	11.236928
21	0x3c475ebf	0.012168585
22	0xbb2b11b2	-0.0026103077
23	0xbc819812	-0.015819583
24	0x40c51ab1	6.159508
25	0x3ed1c501	0.40970615
26	0xbc954959	-0.018223451
27	0xbce55720	-0.027995646
28	0x412ceedf	10.808318
29	0xbd5d8356	-0.05408033
30	0xbb7718e7	-0.0037704052
31	0xbe08b45d	-0.13350053

fc1.bias f4 [8]
0	0x40c8037f	6.250427
1	0xc13af3bd	-11.684506
2	0x40e7d717	7.245006
3	0x41179189	9.473031
4	0xc08afa5b	-4.343061
5	0x4130312c	11.012005
6	0x40c3dbec	6.120596
7	0x412e0967	10.8772955

fc2.weight f4 [8, 8]
0	0x3d174fa5	0.03694119
1	0x3fd741b0	1.6816921
2	0x3e529b62	0.20567086
3	0xbf22b599	-0.63558346
4	0x3e3f977a	0.18710127
5	0xbf1f7bed	-0.6229847
6	0x3d27cd87	0.04096749
7	0xbebc5820	-0.36785984
8	0xbe2c9371	-0.1685312
9	0xbfa37862	-1.2771113
10	0xbeb9d881	-0.36297992
11	0xbe98d009	-0.29846218
12	0xbe8a3a17	-0.26997444
13	0x4039b91c	2.9019232
14	0xbee56f20	-0.44811344
15	0xbf1d8a7a	-0.61539423
16	0x3f136761	0.5757962
17	0xbe49272a	-0.19643846
18	0xbffe8aba	-1.9886086
19	0x3db54cdd	0.08852551
20	0xbe97dfe0	-0.2966299
21	0x3f519e99	0.81882626
22	0x3d2665c0	0.04062438
23	0x3f89841b	1.074344
24	0xbec6b3bb	-0.38808998
25	0xbf61ba93	-0.88175315
26	0xbd7224a6	-0.059116982
27	0xbfaab901	-1.3337709
28	0xbe508735	-0.20364077
29	0x4028d33d	2.637893
30	0x3dd8b80d	0.1058198
31	0x3ca6607b	0.020309677
32	0xc020cc95	-2.5124867
33	0xbe3ad434	-0.18245012
34	0x3ebcf84d	0.36908188
35	0xbed6f95e	-0.41987127
36	0x3d2a319a	0.04155121
37	0x3f316d75	0.69307643
38	0x3d7d05ba	0.06177304
39	0x3fd708b8	1.6799536
40	0x3e8d3792	0.2758146
41	0xbf438e77	-0.7638926
42	0xbf202f0a	-0.62571776
43	0x3e5cb8bc	0.21554846
44	0xbf04c085	-0.5185626
45	0x4000c6d6	2.012136
46	0x3e33d819	0.17562903
47	0xbef0187a	-0.46893674
48	0xbd29869a	-0.04138813
49	0xbeb25f07	-0.34838125
50	0xbe68e37f	-0.22743033
51	0x4029de37	2.654188
52	0xbe140af3	-0.14457302
53	0x40287340	2.6320343
54	0xbec1b798	-0.37835383
55	0xbef264d4	-0.4734255
56	0xbe34493e	-0.17606065
57	0xbf877ce5	-1.058499
58	0xbedaf132	-0.42762142
59	0x3f95dbdd	1.1707722
60	0xbe911f94	-0.28344405
61	0x3fef0f11	1.8676473
62	0xbfa16566	-1.2609069
63	0xbf5a27cc	-0.85216975

fc2.bias f4 [8]
0	0x41412c1e	12.073271
1	0x409d77ba	4.920865
2	0x3f84aa67	1.0364503
3	0x40b3fca7	5.6245914
4	0xc0873d2c	-4.2262173
5	0x40b5216b	5.6603293
6	0x3fed2f71	1.8530103
7	0x40f5d800	7.682617

fc3.weight f4 [8, 8]
0	0xbffa1dde	-1.9540365
1	0xbe32902d	-0.17437811
2	0xbf1e53e9	-0.61846787
3	0x3f78c409	0.97174126
4	0xbef38dcb	-0.47569117
5	0xbf378698	-0.7168975
6	0x3f49ef6b	0.7888095
7	0xbe626762	-0.2210975
8	0x3d6fdcd3	0.058560204
9	0xbe9eec5e	-0.3103971
10	0xbcc8fef2	-0.02453563
11	0x3db7422e	0.0894817
12	0x3dcfdd47	0.10149627
13	0x3e7a8781	0.24465753
14	0xbe55a652	-0.20864227
15	0x3faa7f29	1.3320056
16	0xbf69afb3	-0.9128372
17	0xc10a257a	-8.63415
18	0xbe1cec6d	-0.15324564
19	0xbfc1f844	-1.515389
20	0xc0b917f6	-5.784175
21	0xbcb1ec02	-0.021718983
22	0xc08de54a	-4.4342394
23	0xc19e14d9	-19.76018
24	0xc0488032	-3.1328244
25	0xbf459c38	-0.77191496
26	0xbf63dc36	-0.8900789
27	0xbf47718c	-0.77907634
28	0xbf7e1f86	-0.9926685
29	0x3f98fc95	1.1952082
30	0x3f9ab037	1.2085027
31	0xbf0c0005	-0.5468753
32	0x3cdf4eef	0.027259318
33	0xbf8a9d51	-1.0829259
34	0xbe8b956f	-0.27262446
35	0xbf173ec8	-0.5908017
36	0xbe40f045	-0.18841656
37	0xbeb68e9f	-0.35655686
38	0x3f5f3631	0.87192065
39	0x3f975bd3	1.1824898
40	0x3e1e576b	0.15463035
41	0x3f7c35f4	0.98519826
42	0x3e92b50f	0.28653762
43	0x3f13bc88	0.5770955
44	0xbf05387c	-0.52039313
45	0x3e65ad8c	0.22429484
46	0x3e836aa4	0.25667298
47	0xbefd3a6d	-0.49458638
48	0xbd2abb53	-0.041682553
49	0xc03d7c97	-2.9607294
50	0xbe2b9b8b	-0.16758554
51	0x3ed240c9	0.41065052
52	0xbe42c3d8	-0.19020021
53	0x3ea33991	0.31879857
54	0xbd02d7bf	-0.031944033
55	0x402d8785	2.7113965
56	0x3d2467d8	0.040138096
57	0x3fbc8760	1.4728813
58	0xbf526fcc	-0.8220184
59	0x3edf03b3	0.4355751
60	0x3ee93395	0.45547166
61	0x3f8b214d	1.0869538
62	0x3e71d6db	0.23617117
63	0xbf636342	-0.8882333

fc3.bias f4 [8]
0	0xbfed8405	-1.8555914
1	0xc12741ca	-10.453562
2	0x3f4df6f2	0.80454934
3	0x3f41779e	0.75573146
4	0xc0c72d7f	-6.2243037
5	0xc125bdb7	-10.358817
6	0x40c5cd7e	6.1813345
7	0xbe68906c	-0.22711343

fc4.weight f4 [4, 8]
0	0xbf863eb5	-1.0487887
1	0xbe9d1205	-0.3067781
2	0xc029484d	-2.645038
3	0x3ef67b43	0.48140916
4	0xbe309db1	-0.17247654
5	0xc0127d10	-2.2888832
6	0xbe558645	-0.20852001
7	0x3f9c38a8	1.220479
8	0x3e22b4a1	0.15889217
9	0xc0618ee3	-3.524346
10	0x40007ef3	2.0077484
11	0x3c98d025	0.018653939
12	0xbfdbb47e	-1.7164457
13	0x3f00e051	0.5034228
14	0x3f9f2c9f	1.2435492
15	0x3f0929e0	0.5357952
16	0x40498d59	3.1492522
17	0xbe1a1405	-0.150467
18	0x3fb27366	1.3941467
19	0xc0108d41	-2.2586215
20	0x3dfe704e	0.12423764
21	0x3e8fc43e	0.28079408
22	0x3e30c3b6	0.17262158
23	0xbe0f36de	-0.13985774
24	0x3c8e34be	0.017359134
25	0xc011e743	-2.27974
26	0x41262465	10.383885
27	0x3e2cf380	0.16889763
28	0x3efc9ac5	0.4933683
29	0x3efa5cee	0.48899025
30	0xc0118406	-2.273683
31	0x3f9af236	1.2105167

fc4.bias f4 [4]
0	0x40dbaa23	6.8645186
1	0x403e7b19	2.9762633
2	0xbf9de607	-1.2335824
3	0x3f9c1db1	1.2196561
