Kinematics/IK_NN/model/custom_test_13_ann_model.pth (torch, 12838 bytes, 10 tensors)

fc1.weight f4 [24, 13]
28.253801 0.17648126 -0.2259642 -0.057127632 28.310745 110.278435 -0.2287549 -110.39343
27.875711 0.725304 0.18503101 -0.3269676 28.10324 4.783504 0.18115623 0.22235088
-0.13930069 5.07062 -0.62611073 -0.14923842 0.45051277 4.8166533 -0.665145 1.0125675
-0.069972716 4.8534775 -4.056894 7.534991e-05 0.08590819 0.0322777 -3.7205462 127.56715
-0.20159464 -127.52672 -3.8803396 -2.3529677 0.0023509138 -0.03564703 -4.086275 9.991933
0.01629985 0.11935264 0.069384806 9.76209 -110.38962 0.13087307 110.50241 9.8377695
1.3858162 1.8189739 -0.18741705 9.975955 36.787468 0.02391872 -0.22506033 -0.16668127
36.454124 127.06565 0.26146257 -127.18408 36.768684 -0.5698617 0.15099214 -1.1720484
36.874805 -61.02617 -0.25837436 -0.14722691 0.12648833 -60.660206 54.855705 0.042835183
-54.586086 -60.899815 2.1905267 0.008918571 0.07572703 -61.00545 8.668086 0.025347427
0.014723287 0.20036772 8.724349 45.341736 -0.163835 -45.477013 8.801774 1.1682924
-1.367815 -0.032944996 8.987104 64.64932 0.17372817 -0.12224427 0.059544384 64.292496
-154.87762 0.16923498 154.87245 64.09956 0.12966661 -0.7612445 1.2217906 64.341515
12.638582 -0.13575459 -0.06054605 0.23953803 12.270816 62.14237 -0.06395951 -62.08973
12.540883 0.0059189745 2.50273 -1.6938744 12.110774 -1.3558253 -0.18626226 -0.06775118
0.21270682 -1.2212865 52.345467 -0.18093401 -52.31626 -1.0153699 0.017831614 -2.1061685
-0.3769249 -1.3544925 14.6968155 -0.05263041 -0.20437647 0.060589395 14.63812 70.4397
0.088241786 -70.05712 14.491826 -1.1307684 0.7669535 0.7105399 14.738602 -55.132866
0.019186389 0.01616826 0.03792372 -54.916607 26.046211 -0.12557799 -26.098736 -55.26672
0.005377636 1.0231506 -1.0341377 -55.382298 -33.652424 0.19955923 -0.04374074 -0.18114609
-33.603195 75.55555 0.08097662 -75.80441 -34.076466 0.88311297 1.1688809 1.4979885
-33.770412 -16.550995 -0.006176577 0.22082087 0.18603364 -16.625639 53.875546 0.0075310897
-53.673588 -16.441092 0.76474005 -0.44990084 1.253943 -16.600512 -7.33655 -0.26188374
0.1057155 0.15299164 -7.418716 80.49733 0.022526648 -80.6059 -7.3785477 1.8910903
0.0070385183 0.022659574 -7.4004774 4.579202 0.10227308 -0.066757575 0.08846665 4.3465886
48.233242 -0.14561911 -48.533527 4.4330406 -0.010428662 0.62222105 1.9954203 4.8387613
-35.805958 0.06859969 -0.21192859 0.0071354285 -35.662537 107.821014 0.086649686 -108.05953
-35.86528 -0.24320091 -0.07177616 1.1404746 -36.04428 69.61798 -0.17075524 0.24034265
0.25262052 69.65973 -104.66377 0.13797395 104.851524 69.64758 -0.15816346 0.14520387
0.18718915 69.806114 7.749246 0.26373056 -0.21750313 -0.18401235 8.085316 55.743813
0.11460054 -56.133656 8.0945 -0.8100207 -0.9465599 0.029405504 7.802927 49.73674
-0.12668985 0.18537427 -0.00568176 49.920654 -12.603712 0.10565555 12.21368 50.162605
00000000: c907 e241 81b7 343e 2963 67be aafe 69bd
00000010: 687c e241 8f8e dc42 b93e 6abe 70c9 dcc2
00000020: 7501 df41 86ad 393f c578 3d3e 4c68 a7be
00000030: 6fd3 e041 7712 9940 0581 393e f3af 633e
00000040: d7a4 0ebe 8542 a240 cb48 20bf f5d1 18be
00000050: 9ca9 e63e 0622 9a40 f146 2abf d09b 813f
00000060: db4d 8fbd b04f 9b40 13d2 81c0 2d05 9e38
00000070: a2f0 af3d 9f35 043d 6e1d 6ec0 6122 ff42
00000080: d36e 4ebe ae0d ffc2 7c57 78c0 0697 16c0
00000090: ca11 1a3b 9f02 12bd c4c2 82c0 f5de 1f41
000000a0: 4387 853c 286f f43d 9f19 8e3d 8531 1c41
000000b0: 7cc7 dcc2 9703 063e 3c01 dd42 8167 1d41
000000c0: 6d62 b13f 23d4 e83f 41ea 3fbe 839d 1f41
000000d0: 5e26 1342 31f1 c33c 3776 66be 7fae 2abe
000000e0: 06d1 1142 9d21 fe42 6cde 853e 405e fec2
000000f0: 2213 1342 75e2 11bf af9d 1a3e af05 96bf
00000100: cd7f 1342 cc1a 74c2 a549 84be a7c2 16be
00000110: 2886 013e 0da4 72c2 3e6c 5b42 f273 2f3d
00000120: 2758 5ac2 6999 73c2 9731 0c40 331f 123c
00000130: c616 9b3d 9505 74c2 7bb0 0a41 68a5 cf3c
00000140: f139 713c 322d 4d3e ef96 0b41 f05d 3542
00000150: 5dc4 27be 76e8 35c2 11d4 0c41 9b8a 953f
00000160: 9014 afbf 55f1 06bd 2ecb 0f41 744c 8142
00000170: cce5 313e 345b fabd d0e4 733d c295 8042
00000180: ace0 1ac3 ef4b 2d3e 59df 1a43 fa32 8042
00000190: 53c7 043e ebe0 42bf a263 9c3f dbae 8042
000001a0: a237 4a41 4003 0bbe 23ff 77bd 7549 753e
000001b0: 4355 4441 c991 7842 34fd 82bd e25b 78c2
000001c0: 75a7 4841 f5f3 c13b ba2c 2040 e0d0 d8bf
000001d0: bbc5 4141 af8b adbf 89bb 3ebe 21c1 8abd
000001e0: d1cf 593e 1e53 9cbf c261 5142 c446 39be
000001f0: da43 51c2 a4f7 81bf 9b13 923c 77cb 06c0
00000200: 4dfc c0be 0360 adbf 2826 6b41 fc92 57bd
00000210: 1148 51be 962c 783d bd35 6a41 20e1 8c42
00000220: 1cb8 b43d 3f1d 8cc2 85de 6741 05bd 90bf
00000230: 1157 443f f1e5 353f 50d1 6b41 0e88 5cc2
00000240: c62c 9d3c 4c73 843c e755 1b3d 9baa 5bc2
00000250: a45e d041 8497 00be 36ca d0c1 1f11 5dc2
00000260: e136 b03b 99f6 823f a05e 84bf 7987 5dc2
00000270: 159c 06c2 4159 4c3e 7d29 33bd 5c7e 39be
00000280: ac69 06c2 711c 9742 12d7 a53d dc9b 97c2
00000290: 4d4e 08c2 b113 623f e49d 953f 16be bf3f
000002a0: e714 07c2 7068 84c1 e264 cabb de1e 623e
000002b0: 9a7f 3e3e 4f01 85c1 8f80 5742 5cc7 f63b
000002c0: c1b1 56c2 5b87 83c1 01c6 433f 6759 e6be
000002d0: 3481 a03f d9cd 84c1 05c5 eac0 a015 86be
000002e0: 5e81 d83d d7a9 1c3e 1f66 edc0 a2fe a042
000002f0: ce89 b83c 3936 a1c2 101d ecc0 3f0f f23f
00000300: 5fa3 e63b 92a0 b93c b6d0 ecc0 d388 9240
00000310: 8c74 d13d 32b8 88bd 012e b53d 4117 8b40
00000320: d7ee 4042 2d1d 15be 5522 42c2 78db 8d40
00000330: fbdc 2abc e149 1f3f ef69 ff3f 22d7 9a40
00000340: 4d39 0fc2 ff7d 8c3d cf03 59be 50d0 e93b
00000350: 70a6 0ec2 5ca4 d742 6475 b13d 7b1e d8c2
00000360: 0c76 0fc2 a909 79be 61ff 92bd 12fb 913f
00000370: 582d 10c2 683c 8b42 76da 2ebe 621c 763e
00000380: 7a57 813e c851 8b42 da53 d1c2 0b49 0d3e
00000390: fbb3 d142 904b 8b42 9af5 21be 53b0 143e
000003a0: 83ae 3f3e bb9c 8b42 d3f9 f740 b107 873e
000003b0: 24b9 5ebe bc6d 3cbe 745d 0141 aaf9 5e42
000003c0: b0b3 ea3d dd88 60c2 1283 0141 845d 4fbf
000003d0: c051 72bf d0e3 f03c 94b1 f940 6cf2 4642
000003e0: fcba 01be c1d2 3d3e 0f2e babb c0ae 4742
000003f0: cea8 49c1 f061 d83d 3c6b 4341 82a6 4842

fc1.bias f4 [24]
28.00985 5.0548296 -3.7626274 9.789212 36.36232 -61.137207 8.687725 64.33333
12.49897 -1.0780826 14.387367 -54.977386 -34.009647 -16.522564 -7.420463 4.744665
-36.05823 69.43186 7.733529 50.138 -44.99023 -35.15796 -23.725748 -68.79794
00000000: 2c14 e041 2ac1 a140 e3ce 70c0 9da0 1c41
00000010: 0473 1142 808c 74c2 ec00 0b41 aaaa 8042
00000020: c8fb 4741 9cfe 89bf a832 6641 d8e8 5bc2
00000030: e109 08c2 362e 84c1 6f74 edc0 4cd4 9740
00000040: a13b 10c2 1ddd 8a42 1279 f740 508d 4842
00000050: fff5 33c2 c0a1 0cc2 55ce bdc1 8c98 89c2

fc2.weight f4 [24, 24]
-0.8864375 0.24459216 -0.006954207 -0.39734796 -0.6284214 1.0262271 -1.2502689 1.5394473
-1.0341066 -1.3689544 -0.6308844 -0.83687764 -1.2338403 -1.8060964 -3.4002836 -0.9545471
-1.0433776 6.5850625 -0.85606146 -0.6008196 -0.1496824 -0.5138144 -1.1035156 -1.2554647
3.7544775 -5.4267116 0.42714173 -3.4107344 1.7587811 2.9643154 1.9033229 -3.0487063
-1.2575319 -0.18405369 -0.8538282 11.7041645 1.9465227 0.90043664 -1.1701214 0.25384617
3.3047996 -3.283353 3.320238 0.4981608 2.9197497 1.6124704 0.66284037 1.9220129
0.31147626 6.48751 -1.2679842 -8.43417 -11.368719 6.8022437 -10.825852 -12.16958
1.3173342 5.3009744 -13.616314 5.1355114 13.872434 4.160903 1.5960352 -9.854974
-18.999836 -6.7139316 -1.1472574 -1.5192089 10.584172 7.422029 6.509253 17.599714
-14.952555 5.69879 -4.8910313 -11.7310095 -14.209709 8.232601 -20.915237 -4.0779157
-3.765025 7.3448453 -14.695097 8.928476 -11.442241 -3.9288957 -7.6939573 -1.0585723
-25.97324 -9.894092 -8.967741 -19.025953 -19.887297 -3.5283465 -4.5537786 13.381099
-7.8548403 5.023692 -1.6832019 5.6713095 3.5307758 -12.368467 -3.989396 -11.131557
-6.6188807 3.5946035 0.7579722 11.471835 -1.087105 -0.6881916 5.123895 3.32639
25.403902 -21.365625 -5.95847 -6.587356 13.2000065 -2.7046123 -7.8519816 9.884314
0.9725838 2.6302443 0.017702892 0.9023255 -6.128819 -9.058259 -3.3875852 1.1692721
-6.8379946 6.1048107 0.752247 -12.328705 -6.4965663 7.050388 -0.3578415 -3.481998
-5.071604 1.587409 -5.7971396 -9.962675 -26.494879 -8.834794 -2.2478573 3.1101983
-35.38444 0.24701494 -17.293806 -2.5264454 -24.333836 25.22672 -1.7424723 -6.7379713
-7.2468295 -7.30653 -5.6811385 49.6759 -7.2453666 1.4499892 -11.458415 -12.926407
-7.7203145 -28.183561 -4.5527196 -28.227352 -12.842402 -0.37575537 -7.4140277 27.418106
2.6015604 -0.84238374 3.6968896 -5.577387 -10.228326 -12.814307 -7.217631 3.6533077
-1.1528537 -1.5186951 1.3016996 3.1977572 -5.8586063 -5.638098 -1.3082287 -0.2063996
-5.460345 8.298798 -3.2202187 0.5132275 -1.6206701 -2.9129279 -6.244237 -3.5969162
3.368544 -0.07240948 -6.0024843 -0.6227552 -0.671421 -4.1208806 -2.2066636 4.051093
-1.5591708 -1.3746368 -1.5559222 -3.6917157 -1.8114785 -2.5305712 1.4726963 -2.5250664
-0.43345776 10.183656 -2.8026402 -2.8916633 -1.3990893 -0.77759653 -2.647954 2.7932117
-0.5636004 0.5159077 -1.9683886 -0.23485145 -1.827994 -7.2572174 -2.1954 2.9818575
-2.1064382 -1.843801 -0.23220925 -4.758959 -3.049513 -1.673618 -1.2416081 -1.3293179
-3.8007543 10.091632 -2.7456977 -1.8761337 -5.8915143 -2.6975052 -1.3266098 -6.0069785
-15.071217 -12.411036 -5.282072 -8.652138 0.26801792 -1.7290941 1.7567525 -15.292484
-3.6998239 -7.3129096 -19.376673 7.4439697 4.721407 -5.5728526 1.2288067 -1.8883402
00000000: 91ed 62bf 5e76 7a3e 1ee0 e3bb 3171 cbbe
00000010: 3ae0 20bf 695b 833f d008 a0bf 9c0c c53f
00000020: 9b5d 84bf e639 afbf a481 21bf 9d3d 56bf
00000030: 7bee 9dbf 2b2e e7bf 3f9e 59c0 335d 74bf
00000040: 668d 85bf d5b8 d240 d826 5bbf 50cf 19bf
00000050: 5846 19be 5789 03bf 0040 8dbf 11b3 a0bf
00000060: 5c49 7040 9fa7 adc0 52b2 da3e 7949 5ac0
00000070: bd1f e13f 58b7 3d40 16a0 f33f 011e 43c0
00000080: cef6 a0bf 9278 3cbe 7c94 5abf 4244 3b41
00000090: a827 f93f 0483 663f 8ac6 95bf 20f8 813e
000000a0: d681 5340 7522 52c0 c87e 5440 ef0e ff3e
000000b0: 2edd 3a40 6e65 ce3f e8af 293f 8504 f63f
000000c0: d179 9f3e af99 cf40 4e4d a2bf 5cf2 06c1
000000d0: 46e6 35c1 fbab d940 b136 2dc1 9ab6 42c1
000000e0: 689e a83f 95a1 a940 6cdc 59c1 1c56 a440
000000f0: 7df5 5d41 1e26 8540 e24a cc3f f9ad 1dc1
00000100: aaff 97c1 87d8 d6c0 55d9 92bf 7075 c2bf
00000110: c558 2941 4381 ed40 cd4b d040 37cc 8c41
00000120: aa3d 6fc1 7d5c b640 5483 9cc0 37b2 3bc1
00000130: f85a 63c1 bcb8 0341 6852 a7c1 497e 82c0
00000140: 2bf6 70c0 f908 eb40 1e1f 6bc1 0adb 0e41
00000150: 6b13 37c1 0773 7bc0 e634 f6c0 4c7f 87bf
00000160: 32c9 cfc1 334e 1ec1 de7b 0fc1 2735 98c1
00000170: 2f19 9fc1 6ed0 61c0 8eb8 91c0 fb18 5641
00000180: da5a fbc0 16c2 a040 2973 d7bf 5e7b b540
00000190: 3bf8 6140 3ee5 45c1 4452 7fc0 dc1a 32c1
000001a0: dfcd d3c0 fc0d 6640 770a 423f a38c 3741
000001b0: 4226 8bbf 532d 30bf f3f6 a340 93e3 5440
000001c0: 313b cb41 cdec aac1 c9ab bec0 9fcb d2c0
000001d0: 3a33 5341 5e18 2dc0 6f43 fbc0 2626 1e41
000001e0: 40fb 783f ec55 2840 a805 913c cefe 663f
000001f0: 491f c4c0 a1ee 10c1 32ce 58c0 b5aa 953f
00000200: dad0 dac0 9c5a c340 4293 403f 6042 45c1
00000210: dfe3 cfc0 c79c e140 0037 b7be 0ed9 5ec0
00000220: 944a a2c0 3830 cb3f 2b82 b9c0 1e67 1fc1
00000230: 83f5 d3c1 515b 0dc1 e5dc 0fc0 7d0d 4740
00000240: ab89 0dc2 7cf1 7c3e b759 8ac1 48b1 21c0
00000250: b2ab c2c1 53d0 c941 5509 dfbf 769d d7c0
00000260: 07e6 e7c0 18cf e9c0 e3cb b5c0 1fb4 4642
00000270: 0bda e7c0 3f99 b93f ab55 37c1 90d2 4ec1
00000280: d10c f7c0 ef77 e1c1 e1af 91c0 9ed1 e1c1
00000290: 7b7a 4dc1 0263 c0be b73f edc0 4858 db41
000002a0: f77f 2640 76a6 57bf d799 6c40 f479 b2c0
000002b0: 39a7 23c1 6707 4dc1 d5f6 e6c0 cbcf 6940
000002c0: b690 93bf 9a64 c2bf 189e a63f 0ea8 4c40
000002d0: b479 bbc0 4c6b b4c0 0a74 a7bf 6b5a 53be
000002e0: 25bb aec0 e0c7 0441 1018 4ec0 e162 033f
000002f0: 1e72 cfbf 696d 3ac0 cad0 c7c0 e033 66c0
00000300: 3a96 5740 6c4b 94bd 5a14 c0c0 e36c 1fbf
00000310: 3fe2 2bbf 41de 83c0 fa39 0dc0 8ea2 8140
00000320: e992 c7bf 19f4 afbf 7528 c7bf 1245 6cc0
00000330: 87de e7bf e1f4 21c0 5081 bc3f b09a 21c0
00000340: 2dee ddbe 41f0 2241 755e 33c0 0311 39c0
00000350: 5c15 b3bf 9110 47bf 1478 29c0 fbc3 3240
00000360: 1e48 10bf 8712 043f 28f4 fbbf e67c 70be
00000370: b5fb e9bf 203b e8c0 6f81 0cc0 c1d6 3e40
00000380: e2cf 06c0 ac01 ecbf 43c8 6dbe 6449 98c0
00000390: 392b 43c0 1d39 d6bf 04ed 9ebf 1727 aabf
000003a0: 8f3f 73c0 5377 2141 83b9 2fc0 2625 f0bf
000003b0: 4987 bcc0 eda3 2cc0 5ace a9bf 2b39 c0c0
000003c0: b423 71c1 9a93 46c1 bc06 a9c0 286f 0ac1
000003d0: a539 893e f552 ddbf 44dd e03f 04ae 74c1
000003e0: eac9 6cc0 5b03 eac0 6d03 9bc1 0035 ee40
000003f0: c415 9740 cf54 b2c0 8a49 9d3f 22b5 f1bf

fc2.bias f4 [24]
62.79504 -51.670338 3.1646457 -6.6991763 -27.25186 4.928412 -16.264772 11.018241
30.330303 46.509808 -23.302542 19.403328 8.725255 -44.652687 -38.062126 10.370991
23.509 -29.896326 -0.16551663 1.7174971 5.240493 0.99623996 5.819492 8.829687
00000000: 1f2e 7b42 6dae 4ec2 8e89 4a40 a75f d6c0
00000010: cf03 dac1 8db5 9d40 411e 82c1 b74a 3041
00000020: 76a4 f241 0b0a 3a42 9b6b bac1 043a 9b41
00000030: a59a 0b41 5a9c 32c2 9e3f 18c2 94ef 2541
00000040: 6f12 bc41 ad2b efc1 317d 29be f2d6 db3f
00000050: 1eb2 a740 9509 7f3f 4739 ba40 6646 0d41

fc3.weight f4 [24, 24]
-0.21257044 -0.65055984 -2.6554465 -1.8384237 5.1705947 1.6187756 -4.2980623 -1.1523246
-0.89104676 -3.114896 1.8289578 0.6064263 -0.95604074 0.7772643 0.3101981 3.5766194
0.43322852 -4.022762 0.75253314 1.0933735 -1.333267 0.04677871 -0.7425076 -0.9583855
0.35212117 -0.65357155 12.306367 3.6297073 -11.566187 12.764124 0.070918724 2.8045151
0.23609076 -0.2359892 -1.0714982 11.353921 2.617125 -2.6097472 -2.8454938 23.397036
3.8180115 -5.5001965 -6.098136 -2.8734033 -1.2276101 2.9662697 -1.976893 -1.123617
0.33792982 0.0031653543 0.95505923 -0.4706956 -0.7119144 3.2852798 -2.2763624 1.1671761
-0.042222857 0.12938938 -3.471992 -0.06127648 0.14751203 0.48011273 0.68865246 0.4213391
-5.012658 4.799015 -0.023066703 0.16773002 -0.020214906 -2.5542512 -1.9228469 0.046805397
0.015379012 -0.1541611 -1.0148319 -0.8815703 -8.977896 10.838589 -7.2309613 -0.5339146
-0.05201107 0.19815683 8.499771 4.5637455 -0.111396365 -3.2589064 0.073538154 -1.5618178
-1.4599177 1.7880609 1.1764557 0.1100021 0.5492194 8.9430485 -0.79583865 -3.0982194
0.97362626 -0.25123137 -5.684896 -5.2510786 -8.872536 6.2255282 9.220663 -3.6572313
-4.247299 1.2938864 9.006218 7.3264375 -0.58483475 -3.2957048 6.7640023 -6.588678
8.457774 -8.016495 1.1526473 3.609202 3.254437 14.395105 6.829484 -0.34003258
2.7334943 4.5986676 -21.675861 21.267323 5.8313403 16.531593 -4.34219 1.6225166
0.4980692 -8.233021 -14.322413 -1.8143301 6.4018493 27.245104 -4.0494003 5.7318025
14.904604 10.597986 -0.6395648 6.7821183 1.8355217 -7.662078 12.372751 2.562252
0.7978055 -0.1559068 12.139535 11.978132 -3.3187068 5.9540124 -2.3982165 2.8494685
0.3861472 -0.5064091 -10.517386 12.500436 4.0539465 0.46793756 -4.874771 18.442902
3.7890947 -6.716944 -2.7884138 -2.4620824 -2.7047207 4.3134937 -2.032045 -0.71356744
3.3910742 7.631782 -9.150847 15.5836 -0.24015361 10.345389 7.682776 -1.5237746
2.1679056 -2.1380131 -10.496672 4.42847 -2.0618844 22.034817 0.04834443 1.6290206
1.2509975 -3.1441367 -8.1844845 -2.2395253 2.2898633 -12.004866 4.9955616 3.0491374
2.5769606 2.8795862 10.929743 -8.593097 6.5350757 -8.941688 7.502361 -1.6839484
-2.8809872 0.9479256 13.469992 -6.745906 -18.50262 -2.882392 24.962122 -2.6629248
4.7975826 9.417625 -32.93436 -5.92737 0.87035507 4.3933086 7.947734 -0.42941043
12.543753 2.5710728 -17.798166 15.676228 -3.7157426 3.9270387 10.551594 -3.18717
-4.1973853 -9.492764 -1.7028351 14.705665 -4.8830814 27.2421 8.956955 0.07667292
-0.00939414 7.294668 2.7031932 -0.268122 1.4886763 11.843353 6.036551 3.9767358
0.92983747 1.3318094 3.3137007 -9.370456 3.3414066 -14.339457 2.5702286 -2.3977997
0.029639803 1.255739 10.687127 22.76571 -2.0120435 -0.2030378 6.311167 4.5728674
00000000: 11ac 59be 178b 26bf d6f2 29c0 7851 ebbf
00000010: 8375 a540 0a34 cf3f ba89 89c0 5f7f 93bf
00000020: a41b 64bf 755a 47c0 4a1b ea3f c13e 1b3f
00000030: 16bf 74bf cbfa 463f 49d2 9e3e 55e7 6440
00000040: 21d0 dd3e 77ba 80c0 03a6 403f aaf3 8b3f
00000050: 7ea8 aabf 089b 3f3d fa14 3ebf c158 75bf
00000060: 3a49 b43e 7750 27bf e1e6 4441 204d 6840
00000070: 1a0f 39c1 da39 4c41 d63d 913d 2d7d 3340
00000080: c7c1 713e 27a7 71be da26 89bf a9a9 3541
00000090: fa7e 2740 1906 27c0 921c 36c0 212d bb41
000000a0: 4d5a 7440 9c01 b0c0 ee23 c3c0 d7e5 37c0
000000b0: 5422 9dbf 5dd7 3d40 d40a fdbf afd2 8fbf
000000c0: 2305 ad3e d571 4f3b c37e 743f 04ff f0be
000000d0: 0640 36bf 0642 5240 ecaf 11c0 0766 953f
000000e0: e0f1 2cbd a67e 043e 1e35 5ec0 0cfd 7abd
000000f0: 650d 173e 56d1 f53e 874b 303f c2b9 d73e
00000100: b267 a0c0 8891 9940 62f6 bcbc 6bc1 2b3e
00000110: bb99 a5bc da78 23c0 d91f f6bf 04b7 3f3d
00000120: 40f8 7b3c 68dc 1dbe 03e6 81bf 97ae 61bf
00000130: 76a5 0fc1 dc6a 2d41 0964 e7c0 a1ae 08bf
00000140: 8f09 55bd a0e9 4a3e 10ff 0741 340a 9240
00000150: c723 e4bd ec91 50c0 2c9b 963d a5e9 c7bf
00000160: 95de babf 2edf e43f 1a96 963f c848 e13d
00000170: a599 0c3f ba16 0f41 15bc 4bbf 3a49 46c0
00000180: 923f 793f 66a1 80be abea b5c0 d608 a8c0
00000190: e8f5 0dc1 8737 c740 d687 1341 1410 6ac0
000001a0: e0e9 87c0 129e a53f 7819 1041 2d72 ea40
000001b0: bbb7 15bf d4ec 52c0 b572 d840 73d6 d2c0
000001c0: 0b53 0741 9043 00c1 f289 933f 2afd 6640
000001d0: b248 5040 5a52 6641 228b da40 c018 aebe
000001e0: 92f1 2e40 4928 9340 2a68 adc1 7a23 aa41
000001f0: 579a ba40 b440 8441 38f3 8ac0 a0ae cf3f
00000200: ed02 ff3e 74ba 03c1 9b28 65c1 f83b e8bf
00000210: f3db cc40 f9f5 d941 b094 81c0 ed6a b740
00000220: 4279 6e41 5a91 2941 85ba 23bf 1d07 d940
00000230: 60f2 ea3f be2f f5c0 caf6 4541 f0fb 2340
00000240: fb3c 4c3f 08a6 1fbe 893b 4241 6ea6 3f41
00000250: b165 54c0 4587 be40 617c 19c0 b15d 3640
00000260: 16b5 c53e 07a4 01bf 3747 28c1 c901 4841
00000270: eeb9 8140 8395 ef3e 20fe 9bc0 108b 9341
00000280: 8780 7240 35f1 d6c0 5f75 32c0 c292 1dc0
00000290: 251a 2dc0 2408 8a40 060d 02c0 5bac 36bf
000002a0: 5c07 5940 8f37 f440 df69 12c1 6d56 7941
000002b0: d4ea 75be b786 2541 4dd9 f540 0c0b c3bf
000002c0: f7be 0a40 35d5 08c0 5ef2 27c1 07b6 8d40
000002d0: eaf5 03c0 4e47 b041 cf04 463d bf83 d03f
000002e0: b020 a03f 8939 49c0 a6f3 02c1 6254 0fc0
000002f0: 1f8d 1240 ee13 40c1 a4db 9f40 1125 4340
00000300: ecec 2440 244b 3840 3ae0 2e41 537d 09c1
00000310: 571f d140 2711 0fc1 5713 f040 9f8b d7bf
00000320: 1862 38c0 41ab 723f 1685 5741 76de d7c0
00000330: 5e05 94c1 1c79 38c0 6db2 c741 5c6d 2ac0
00000340: cc85 9940 98ae 1641 c9bc 03c2 04ad bdc0
00000350: 97cf 5e3f fc95 8c40 d653 fe40 afdb dbbe
00000360: 36b3 4841 758c 2440 a562 8ec1 d4d1 7a41
00000370: bace 6dc0 9a54 7b40 54d3 2841 98fa 4bc0
00000380: fb50 86c0 5de2 17c1 80f6 d9bf 674a 6b41
00000390: 3442 9cc0 d2ef d941 b04f 0f41 b106 9d3d
000003a0: e1e9 19bc ec6d e940 1e01 2d40 4947 89be
000003b0: f28c be3f 607e 3d41 6d2b c140 d782 7e40
000003c0: d409 6e3f bb78 aa3f ac13 5440 63ed 15c1
000003d0: 9bd9 5540 6a6e 65c1 a07e 2440 8d75 19c0
000003e0: 2ccf f23c 0ebc a03f 79fe 2a41 2d20 b641
000003f0: 52c5 00c0 24e9 4fbe 14f5 c940 ee54 9240

fc3.bias f4 [24]
-39.86943 47.77161 46.445427 50.193813 53.57389 -4.878316 25.971216 4.45679
-6.165958 -13.077176 -28.50192 12.532084 3.5667996 11.775154 -10.429599 2.855888
-7.779858 5.0719976 -5.9523087 -11.190804 -17.992949 -1.5535791 1.1200976 -18.759457
00000000: 4c7a 1fc2 2116 3f42 1ec8 3942 77c6 4842
00000010: aa4b 5642 2a1b 9cc0 0dc5 cf41 069e 8e40
00000020: 874f c5c0 1d3c 51c1 ef03 e4c1 6b83 4841
00000030: 7246 6440 0867 3c41 a3df 26c1 dec6 3640
00000040: 99f4 f8c0 ce4d a240 5079 bec0 880d 33c1
00000050: 8ff1 8fc1 aedb c6bf 5c5f 8f3f 5e13 96c1

fc4.weight f4 [24, 24]
0.17309366 -0.2280263 0.45166174 0.3024703 0.19834396 1.5491444 -0.018667635 0.37433434
-0.33257332 0.8907465 -0.7026274 -4.0703154 0.09728723 1.7137626 2.1278317 -0.35602936
-0.52893037 -3.6757865 -0.30452046 0.80050063 -1.5573362 -0.1081048 8.667079 0.62429464
4.285838 -2.6266618 -1.5036738 -0.8915572 -2.4029493 -1.0003587 1.9259624 -3.4887712
6.7166567 -0.8850209 -1.6963499 9.399348 -9.994286 -8.902927 5.612478 -2.493753
-2.106361 -2.879082 2.292728 2.599101 11.114119 -0.3991749 -8.816943 10.4622345
-0.06224027 -0.052620355 -0.1160434 0.07866423 -0.42606893 1.5086918 0.06005844 -1.8883224
0.3703639 -0.48214805 -1.6068237 1.4177711 -1.2368486 -0.03780553 -1.1887733 0.75338197
-0.09261685 -3.225985 -0.893435 0.030158756 1.3551193 -0.6018423 3.370468 0.79478556
-0.111609176 -0.12087525 -0.17193264 -0.28484294 0.15534683 -1.2034185 -0.23256041 -2.2866666
-1.6077267 0.70840776 3.0984392 -1.3376257 1.1358166 -3.3915448 0.18855402 -0.39250416
-0.03036938 3.1882176 -2.7658405 0.65878683 2.9738183 -0.97269213 -0.5278538 -0.35859242
-0.053335458 0.3015483 0.34105173 -0.38772434 0.53010696 -0.7336874 -0.13979815 -3.159869
0.26837116 1.1424791 2.4237788 4.1507792 -2.1964352 -7.456698 -1.2478795 -0.2976999
-0.106829226 -3.1886806 -0.56504434 0.73967016 3.75655 0.63956684 -0.50469285 0.52246726
0.1192916 -0.34468135 0.26446778 -2.6757853 -2.3621235 5.041567 -0.0645776 1.2396313
-5.738967 5.361596 2.8285956 5.2567906 0.94999385 6.7812724 -7.086224 2.3326695
0.46336868 5.2726254 -3.535548 8.4432125 -5.66609 -2.585707 3.9125612 2.30732
-1.1930383 -0.19155936 -0.1785201 0.004133541 -0.7041795 0.52019286 0.096209824 -1.0126085
1.510535 -0.2787934 0.116561495 1.4934012 -3.6820633 -5.460641 -1.8555901 -2.047452
-0.12094343 -1.1201761 -2.0856934 1.4890381 2.1899707 1.6047356 -0.04789758 0.92075634
0.14009899 0.20524105 0.02560455 0.050911445 -0.8816571 0.5245506 -0.29165515 1.6429136
-1.286857 1.3243062 0.13489364 -0.27630898 1.7934252 -4.3906584 -2.4891248 0.5746119
-0.4222876 -3.3491082 -0.23197158 0.19372967 -0.68027604 2.0662675 -1.2908992 1.0221758
2.1206992 5.308103 0.05762452 0.8055609 -5.588795 15.436051 -5.599833 6.6861553
-3.7127376 10.924252 -6.860791 7.7629886 5.0938334 -4.6230774 0.58393407 6.982422
0.9514068 -13.095805 5.1414557 -1.1633579 -5.054504 4.2481446 -3.1961849 9.283853
-0.19421394 -0.5738161 -0.56088555 0.18217358 -2.4893334 -1.9049498 0.5196466 0.021744763
-1.653916 1.0258528 0.45988137 0.44571704 1.2357112 -1.6153648 -1.1933916 -0.6879466
0.2558365 -2.262226 2.5788543 1.0967181 2.7948213 2.3572044 -0.5524194 -0.6592546
-0.5663478 0.18169257 -1.5394094 0.05742727 -0.38160697 3.516311 -0.24445014 0.45720428
-0.84531206 -0.4988355 -0.64177793 -2.7447286 0.12569652 -5.1185646 -3.488296 3.1843352
00000000: 773f 313e ba7f 69be 3540 e73e 63dd 9a3e
00000010: ae1a 4b3e 5d4a c63f deec 98bc c0a8 bf3e
00000020: 0d47 aabe f607 643f 64df 33bf 0640 82c0
00000030: 873e c73d 935c db3f 652e 0840 7b49 b6be
00000040: fb67 07bf 1640 6bc0 1bea 9bbe 9ced 4c3f
00000050: cb56 c7bf 0d66 ddbd 5bac 0a41 c6d1 1f3f
00000060: 9625 8940 3a1b 28c0 6278 c0bf 183d 64bf
00000070: ecc9 19c0 c10b 80bf f085 f63f 0748 5fc0
00000080: daee d640 bb90 62bf fe21 d9bf bb63 1641
00000090: 98e8 1fc1 6472 0ec1 6b99 b340 a699 1fc0
000000a0: 9ece 06c0 e142 38c0 0ebc 1240 ac57 2640
000000b0: 6ed3 3141 a760 ccbe 3312 0dc1 5065 2741
000000c0: a7ef 7ebd 7188 57bd 29a8 edbd b61a a13d
000000d0: b525 dabe d01c c13f d7ff 753d 8cb4 f1bf
000000e0: 56a0 bd3e 1cdc f6be 66ac cdbf 8679 b53f
000000f0: 0e51 9ebf f9d9 1abd b929 98bf a4dd 403f
00000100: e7ad bdbd 8a76 4ec0 28b8 64bf 7f0f f73c
00000110: 8d74 ad3f 5612 1abf bfb5 5740 1177 4b3f
00000120: 5a93 e4bd 718d f7bd 1c0f 30be efd6 91be
00000130: 3d13 1f3e 9e09 9abf 5124 6ebe bf58 12c0
00000140: fdc9 cdbf 365a 353f d44c 4640 5237 abbf
00000150: 7062 913f 120f 59c0 4e14 413e 4ef6 c8be
00000160: 35c9 f8bc c20b 4c40 8803 31c0 41a6 283f
00000170: 0a53 3e40 5a02 79bf 6d21 07bf 6d99 b7be
00000180: 4876 5abd 8a64 9a3e 559e ae3e ce83 c6be
00000190: 17b5 073f f0d2 3bbf 3f27 0fbe 4b3b 4ac0
000001a0: f267 893e c13c 923f 311f 1b40 2fd3 8440
000001b0: 6592 0cc0 459d eec0 84ba 9fbf 1f6c 98be
000001c0: 48c9 dabd 5813 4cc0 bfa6 10bf 065b 3d3f
000001d0: 516b 7040 a7ba 233f 8d33 01bf 6ac0 053f
000001e0: 284f f43d 137a b0be 5268 873e 1140 2bc0
000001f0: 082d 17c0 8454 a140 4341 84bd 3dac 9e3f
00000200: 9ea5 b7c0 3292 ab40 b607 3540 a137 a840
00000210: cc32 733f 2f00 d940 59c2 e2c0 754a 1540
00000220: a93e ed3e 59b9 a840 6b46 62c0 6617 0741
00000230: 9c50 b5c0 397c 25c0 6767 7a40 22ab 1340
00000240: 7bb5 98bf 2328 44be f9cd 36be a872 873b
00000250: 1c45 34bf 5c2b 053f a809 c53d 289d 81bf
00000260: 3659 c13f 02be 8ebe cbb7 ee3d c527 bf3f
00000270: eda6 6bc0 92bd aec0 fa83 edbf 7409 03c0
00000280: 30b1 f7bd ee61 8fbf 007c 05c0 cd98 be3f
00000290: 7b28 0c40 fa67 cd3f 4130 44bd b0b6 6b3f
000002a0: 1c76 0f3e b62a 523e a2c0 d13c 8588 503d
000002b0: 48b4 61bf f348 063f d353 95be fe4a d23f
000002c0: bbb7 a4bf de82 a93f 8f21 0a3e 5f78 8dbe
000002d0: f58e e53f 4680 8cc0 d24d 1fc0 c419 133f
000002e0: 1536 d8be ca57 56c0 f589 6dbe 1261 463e
000002f0: 9226 2ebf ba3d 0440 2f3c a5bf a8d6 823f
00000300: 89b9 0740 fbdb a940 b007 6c3d 3d39 4e3f
00000310: 69d7 b2c0 11fa 7641 d531 b3c0 fcf4 d540
00000320: 7e9d 6dc0 bcc9 2e41 9a8b dbc0 676a f840
00000330: af00 a340 40f0 93c0 b47c 153f 0070 df40
00000340: 658f 733f 6b88 51c1 ce86 a440 e9e8 94bf
00000350: 7fbe a1c0 cdf0 8740 4b8e 4cc0 a98a 1441
00000360: 05e0 46be 9de5 12bf 3296 0fbf b68b 3a3e
00000370: 3d51 1fc0 65d5 f3bf 8f07 053f 1322 b23c
00000380: 85b3 d3bf 254f 833f 9275 eb3e 0635 e43e
00000390: c92b 9e3f 46c4 cebf 0ec1 98bf 451d 30bf
000003a0: 00fd 823e 50c8 10c0 f30b 2540 4261 8c3f
000003b0: 5ade 3240 70dc 1640 5c6b 0dbf e9c4 28bf
000003c0: 2bfc 10bf 9e0d 3a3e 5e0b c5bf db38 6b3d
000003d0: fd61 c3be 3d0b 6140 2351 7abe ae16 ea3e
000003e0: 5f66 58bf 5e67 ffbe 8f4b 24bf a2a9 2fc0
000003f0: 97b6 003e 48cb a3c0 3e40 5fc0 26cc 4b40

fc4.bias f4 [24]
7.066084 -10.337764 -4.9078045 -4.9409294 0.033943404 6.302192 -3.7934275 4.8577285
4.064412 -11.005943 -2.7273405 -12.863071 -6.544164 0.5054668 27.553823 0.97193646
-0.21153764 4.5405726 -9.377072 -5.3505583 -18.125078 15.27323 6.7999153 -6.482519
00000000: 5c1d e240 7b67 25c1 bc0c 9dc0 181c 9ec0
00000010: 3d08 0b3d 8fab c940 84c7 72c0 8372 9b40
00000020: aa0f 8240 5818 30c1 bf8c 2ec0 24cf 4dc1
00000030: cb69 d1c0 4666 013f 3b6e dc41 d4d0 783f
00000040: 539d 58be 5f4c 9140 7d08 16c1 c637 abc0
00000050: 2900 91c1 265f 7441 e898 d940 cc70 cfc0

fc5.weight f4 [4, 24]
0.04187835 -0.14898092 -0.022591561 0.046850946 -0.021846585 1.6644465 0.019436095 -0.04849448
0.33023942 -0.008913614 -0.050757818 0.06310765 -0.06954154 -0.023623 -0.12489481 -0.10927634
-0.22772835 -0.016210224 -0.278274 -1.7700388 -0.09760891 -0.044636767 0.025852643 0.04312258
0.04575635 -0.86827886 0.093511134 -0.012278732 -0.056765262 -0.14235336 -0.025687197 0.034019794
-0.26383373 -0.032649897 -0.027809886 -0.0076778783 0.011986091 -0.025381831 -0.0022630133 0.012874702
-0.16072915 -0.009630434 0.0027077314 -0.14793797 2.175569 0.006723369 -0.14036033 -0.003176639
-0.23983018 0.89192784 0.051782846 -0.08162414 -0.009506563 0.80181587 -0.14270262 0.1302725
-1.7897134 -0.0051205815 0.1199673 0.08671035 -0.008488409 0.10116574 -0.05204719 -0.089164175
0.6484005 0.035621423 -0.2073195 -0.2187275 0.23232287 0.1283638 -0.022339622 -0.11666993
-0.039528802 1.0000023 0.0015718271 -0.003574895 -0.07617397 -0.48095173 0.047634862 -0.043109376
0.10984383 -0.061264172 0.057575725 -0.0020626343 -0.010185596 0.01618611 0.008393666 0.018244028
-1.5248057 0.08401944 0.0071222875 -0.36982682 0.50427276 0.012667141 0.12652919 0.003689044
00000000: a288 2b3d 748e 18be f011 b9bc c7e6 3f3d
00000010: 9cf7 b2bc 950c d53f 7238 9f3c 26a2 46bd
00000020: 2415 a93e 680a 12bc 6ee7 4fbd 953e 813d
00000030: cc6b 8ebd 0685 c1bc dac8 ffbd 46cc dfbd
00000040: 9f31 69be 4ecb 84bc ee79 8ebe a290 e2bf
00000050: 2ee7 c7bd 0bd5 36bd ecc8 d33c 4da1 303d
00000060: 036b 3b3d 8647 5ebf c482 bf3d bc2c 49bc
00000070: b182 68bd 14c5 11be f56d d2bc 5758 0b3d
00000080: 3715 87be e6bb 05bd 8fd1 e3bc b696 fbbb
00000090: 4f61 443c 8fed cfbc 104f 14bb 6af0 523c
000000a0: 2f96 24be f8c8 1dbc 3274 313b 0d7d 17be
000000b0: 863c 0b40 b54f dc3b 9eba 0fbe 292f 50bb
000000c0: 0b96 75be 6255 643f 401a 543d 8f2a a7bd
000000d0: 6ac1 1bbc ce43 4d3f a320 12be 2766 053e
000000e0: 5415 e5bf 8dca a7bb 6ab1 f53d 3295 b13d
000000f0: f812 0bbc fc2f cf3d 6f2f 55bd b59b b6bd
00000100: 93fd 253f c5e7 113d 904b 54be 1afa 5fbe
00000110: 0ce6 6d3e cd71 033e 9501 b7bc a5f0 eebd
00000120: f4e8 21bd 1300 803f c405 ce3a c948 6abb
00000130: 1901 9cbd 4e3f f6be c61c 433d 7593 30bd
00000140: cdf5 e03d 24f0 7abd 86d4 6b3d 432d 07bb
00000150: 7ce1 26bc bc98 843c 9685 093c 8074 953c
00000160: d52c c3bf 6212 ac3d 1462 e93b f159 bdbe
00000170: 0518 013f d789 4f3c de90 013e e3c3 713b

fc5.bias f4 [4]
14.334259 28.304731 -9.3404455 -0.7142705
00000000: 2059 6541 1770 e241 7772 15c1 6eda 36bf
