Kinematics/IK_NN/model/custom_GeLU_ann_model.pth (torch, 2368 bytes, 4 tensors)

fc1.weight f4 [5, 4]
13.837799 0.007950926 0.28945005 -0.4661671 14.1418 -0.013182055 -0.33929673 -0.49724224
23.775879 -0.3228813 0.0011761577 -0.0690876 24.923082 0.34006816 -0.004730502 -0.06993178
28.454557 0.005008364 0.21514839 0.01662997
00000000: a067 5d41 9a44 023c cc32 943e 74ad eebe
00000010: d044 6241 8cf9 57bc 4db8 adbe 8996 febe
00000020: 0035 be41 b350 a5be 4e29 9a3a cd7d 8dbd
00000030: 7962 c741 6a1d ae3e 5402 9bbb 6538 8fbd
00000040: efa2 e341 341d a43b dc4f 5c3e 933b 883c

fc1.bias f4 [5]
14.384778 14.199444 23.51583 25.16501 28.435665
00000000: 0d28 6641 ec30 6341 6b20 bc41 f151 c941
00000010: 3e7c e341

fc2.weight f4 [4, 5]
0.28228554 -0.28893283 0.077219956 0.05514159 0.81208783 -0.0015277431 0.0006534923 -0.63973784
0.6196268 0.018987456 0.52968526 -0.4844117 -0.01023916 -0.024259606 -0.08440949 -0.0019239828
0.0083842175 -0.18393455 0.1722147 0.008818582
00000000: bb87 903e 01ef 93be 7f25 9e3d 26dc 613d
00000010: fde4 4f3f 8d3e c8ba 204f 2b3a dcc5 23bf
00000020: dd9f 1e3f 958b 9b3c 7499 073f cf04 f8be
00000030: 26c2 27bc 15bc c6bc e2de acbd 262e fcba
00000040: f55d 093c 5759 3cbe 0d59 303e d07b 103c

fc2.bias f4 [4]
-56.843445 -2.3571 7.399018 -0.636382
00000000: b05f 63c2 bada 16c0 c1c4 ec40 eee9 22bf
