Kinematics/IK_NN/model/custom_sigmod_ann_model.pth (torch, 2448 bytes, 4 tensors)

fc1.weight f4 [5, 4]
00000000: ae67 253d 4265 cbbf a1b1 f3bf 09a2 c3c2
00000010: 6761 aabc af54 e03f 4398 ffbf 0d86 c9c2
00000020: 964d 7dc1 8914 8140 c266 67be 66ab a740
00000030: 12bc 8241 8850 aa40 914f 60bf bb1f aabf
00000040: 1192 6bbf 593c 8c41 5582 783f e4c9 fe41
0.04038208 -1.5890276 -1.9038583 -97.816475 -0.020798398 1.7525843 -1.9968342 -100.76182
-15.831442 4.0337567 -0.22597793 5.2396727 16.341831 5.3223305 -0.8762141 -1.3290933
-0.92019755 17.529467 0.9707387 31.84858

fc1.bias f4 [5]
00000000: 0b6e c3c2 e2cf c9c2 c702 b640 26b8 ccbf
00000010: a752 fe41
-97.71493 -100.90602 5.687839 -1.5993698 31.790358

fc2.weight f4 [4, 5]
00000000: 8327 bac1 88ea c641 a510 0440 4778 6a40
00000010: 7df0 0642 636a 0cbf 0125 20bf 73ff 09c2
00000020: fd0f ff41 5f5e d5bf 77b4 e0c1 55bb d341
00000030: 33cd b1bf 4428 a3bf 2efe d040 7bed c53e
00000040: a770 1ebf ac59 34c1 0160 4441 2f29 67bf
-23.269293 24.864517 2.063516 3.6635911 33.73485 -0.54849833 -0.62556463 -34.499462
31.882807 -1.6669425 -28.088118 26.46647 -1.3890747 -1.2746663 6.531028 0.38657746
-0.61890644 -11.271893 12.273438 -0.90297216

fc2.bias f4 [4]
00000000: a590 d7be f82a 183e 0b1d dcbf 37b2 e63e
-0.42102543 0.14860141 -1.7196363 0.45057842
